2026-06-28 12:23:04,475 - INFO: 开始创建模型对象:ImageClassification(
  (conv1): Conv2d(3, 32, kernel_size=(3, 3), stride=(1, 1))
  (pool1): MaxPool2d(kernel_size=2, stride=2, padding=0, dilation=1, ceil_mode=False)
  (conv2): Conv2d(32, 128, kernel_size=(3, 3), stride=(1, 1))
  (pool2): MaxPool2d(kernel_size=2, stride=2, padding=0, dilation=1, ceil_mode=False)
  (linear1): Linear(in_features=4608, out_features=2048, bias=True)
  (linear2): Linear(in_features=2048, out_features=2048, bias=True)
  (output): Linear(in_features=2048, out_features=10, bias=True)
  (dropout): Dropout(p=0.5, inplace=False)
)
2026-06-28 12:23:04,475 - INFO: 开始模型优化，当前时间为:2026-06-28 12:23:04
2026-06-28 12:23:04,566 - INFO: 模型训练开始,当前时间为:2026-06-28 12:23:04
2026-06-28 12:32:27,447 - INFO: 当前轮数:0，当前轮的平均损失:1.5181,当前轮的正确率(Accuracy):44.041999999999994%,耗时：562.8806s
2026-06-28 12:42:33,198 - INFO: 当前轮数:1，当前轮的平均损失:1.1415,当前轮的正确率(Accuracy):59.128%,耗时：605.7508s
…
2026-06-28 13:12:17,070 - INFO: 当前轮数:4，当前轮的平均损失:0.7300,当前轮的正确率(Accuracy):74.514%,耗时：588.3764s
2026-06-28 13:22:16,904 - INFO: 当前轮数:5，当前轮的平均损失:0.6207,当前轮的正确率(Accuracy):78.386%,耗时：599.8230s
2026-06-28 13:31:48,335 - INFO: 当前轮数:6，当前轮的平均损失:0.5236,当前轮的正确率(Accuracy):81.678%,耗时：571.4312s
2026-06-28 13:43:06,160 - INFO: 当前轮数:7，当前轮的平均损失:0.4335,当前轮的正确率(Accuracy):84.886%,耗时：677.8249s
2026-06-28 13:55:53,417 - INFO: 当前轮数:8，当前轮的平均损失:0.3487,当前轮的正确率(Accuracy):87.82799999999999%,耗时：767.2565s
2026-06-28 14:08:50,490 - INFO: 当前轮数:9，当前轮的平均损失:0.2831,当前轮的正确率(Accuracy):90.072%,耗时：777.0689s
2026-06-28 14:40:26,604 - INFO: 开始创建模型对象:ImageClassification(
  (conv1): Conv2d(3, 32, kernel_size=(3, 3), stride=(1, 1))
  (pool1): MaxPool2d(kernel_size=2, stride=2, padding=0, dilation=1, ceil_mode=False)
  (conv2): Conv2d(32, 128, kernel_size=(3, 3), stride=(1, 1))
  (pool2): MaxPool2d(kernel_size=2, stride=2, padding=0, dilation=1, ceil_mode=False)
  (linear1): Linear(in_features=4608, out_features=2048, bias=True)
  (linear2): Linear(in_features=2048, out_features=2048, bias=True)
  (output): Linear(in_features=2048, out_features=10, bias=True)
  (dropout): Dropout(p=0.5, inplace=False)
)
2026-06-28 14:40:26,604 - INFO: 开始模型优化，当前时间为:2026-06-28 14:40:26
2026-06-28 14:40:26,612 - INFO: 模型训练开始,当前时间为:2026-06-28 14:40:26
2026-06-28 14:41:16,616 - INFO: 当前轮数:0，当前轮的平均损失:1.6469,当前轮训练集的正确率(Accuracy):39.9375%,当前轮验证集的正确率为:52.1500%,耗时：50.0027s
2026-06-28 14:42:28,248 - INFO: 当前轮数:1，当前轮的平均损失:1.2706,当前轮训练集的正确率(Accuracy):54.1475%,当前轮验证集的正确率为:59.3200%,耗时：71.6237s
2026-06-28 14:43:44,821 - INFO: 当前轮数:2，当前轮的平均损失:1.1033,当前轮训练集的正确率(Accuracy):60.4175%,当前轮验证集的正确率为:63.2100%,耗时：76.5693s
2026-06-28 14:45:03,427 - INFO: 当前轮数:3，当前轮的平均损失:0.9839,当前轮训练集的正确率(Accuracy):65.1825%,当前轮验证集的正确率为:65.2100%,耗时：78.6022s
2026-06-28 14:46:31,585 - INFO: 开始创建模型对象:ImageClassification(
  (conv1): Conv2d(3, 32, kernel_size=(3, 3), stride=(1, 1))
  (pool1): MaxPool2d(kernel_size=2, stride=2, padding=0, dilation=1, ceil_mode=False)
  (conv2): Conv2d(32, 128, kernel_size=(3, 3), stride=(1, 1))
  (pool2): MaxPool2d(kernel_size=2, stride=2, padding=0, dilation=1, ceil_mode=False)
  (linear1): Linear(in_features=4608, out_features=2048, bias=True)
  (linear2): Linear(in_features=2048, out_features=2048, bias=True)
  (output): Linear(in_features=2048, out_features=10, bias=True)
  (dropout): Dropout(p=0.5, inplace=False)
)
2026-06-28 14:46:31,585 - INFO: 开始模型优化，当前时间为:2026-06-28 14:46:31
2026-06-28 14:46:31,601 - INFO: 模型训练开始,当前时间为:2026-06-28 14:46:31
2026-06-28 14:47:31,296 - INFO: 当前轮数:0，当前轮的平均损失:1.6316,当前轮训练集的正确率(Accuracy):40.2425%,当前轮验证集的正确率为:52.8800%,耗时：59.6952s
2026-06-28 14:48:54,518 - INFO: 当前轮数:1，当前轮的平均损失:1.2631,当前轮训练集的正确率(Accuracy):54.4700%,当前轮验证集的正确率为:59.8700%,耗时：83.2135s
…
2026-06-28 15:21:23,113 - INFO: 当前轮数:25，当前轮的平均损失:0.0477,当前轮训练集的正确率(Accuracy):98.4175%,当前轮验证集的正确率为:73.5100%,耗时：77.2777s
2026-06-28 15:22:36,286 - INFO: 当前轮数:26，当前轮的平均损失:0.0436,当前轮训练集的正确率(Accuracy):98.5125%,当前轮验证集的正确率为:73.0700%,耗时：73.1725s
2026-06-28 15:23:47,594 - INFO: 当前轮数:27，当前轮的平均损失:0.0380,当前轮训练集的正确率(Accuracy):98.7875%,当前轮验证集的正确率为:73.7800%,耗时：71.3075s
2026-06-28 15:23:47,594 - INFO: 模型训练结束,当前时间为:2026-06-28 15:23:47
2026-06-28 15:23:47,862 - INFO: 模型测试开始，当前时间为:2026-06-28 15:23:47
2026-06-28 15:23:52,277 - INFO: 测试集的正确率(Accuracy):73.0600%，测试集的样本数量是:10000
2026-06-28 15:23:52,277 - INFO: 模型测试结束，当前时间为:2026-06-28 15:23:52
2026-06-28 15:25:37,849 - INFO: 开始创建模型对象:ImageClassification(
  (conv1): Conv2d(3, 32, kernel_size=(3, 3), stride=(1, 1))
  (pool1): MaxPool2d(kernel_size=2, stride=2, padding=0, dilation=1, ceil_mode=False)
  (conv2): Conv2d(32, 128, kernel_size=(3, 3), stride=(1, 1))
  (pool2): MaxPool2d(kernel_size=2, stride=2, padding=0, dilation=1, ceil_mode=False)
  (linear1): Linear(in_features=4608, out_features=1024, bias=True)
  (linear2): Linear(in_features=1024, out_features=512, bias=True)
  (output): Linear(in_features=512, out_features=10, bias=True)
  (dropout): Dropout(p=0.5, inplace=False)
)
2026-06-28 15:25:37,849 - INFO: 开始模型优化，当前时间为:2026-06-28 15:25:37
2026-06-28 15:25:37,858 - INFO: 模型训练开始,当前时间为:2026-06-28 15:25:37
2026-06-28 15:26:10,047 - INFO: 当前轮数:0，当前轮的平均损失:1.7788,当前轮训练集的正确率(Accuracy):34.5075%,当前轮验证集的正确率为:46.6700%,耗时：32.1886s
2026-06-28 15:26:54,945 - INFO: 当前轮数:1，当前轮的平均损失:1.4379,当前轮训练集的正确率(Accuracy):47.7050%,当前轮验证集的正确率为:52.9800%,耗时：44.8948s
…
2026-06-28 16:44:41,889 - INFO: 当前轮数:25，当前轮的平均损失:0.1659,当前轮训练集的正确率(Accuracy):94.4750%,当前轮验证集的正确率为:73.4700%,耗时：45.2676s
2026-06-28 16:45:26,296 - INFO: 当前轮数:26，当前轮的平均损失:0.1531,当前轮训练集的正确率(Accuracy):94.7400%,当前轮验证集的正确率为:73.2000%,耗时：44.4069s
2026-06-28 16:46:10,905 - INFO: 当前轮数:27，当前轮的平均损失:0.1375,当前轮训练集的正确率(Accuracy):95.4650%,当前轮验证集的正确率为:73.4500%,耗时：44.6087s
2026-06-28 16:46:10,906 - INFO: 模型训练结束,当前时间为:2026-06-28 16:46:10
2026-06-28 16:46:10,993 - INFO: 模型测试开始，当前时间为:2026-06-28 16:46:10
2026-06-28 16:46:14,925 - INFO: 测试集的正确率(Accuracy):73.3800%，测试集的样本数量是:10000
2026-06-28 16:46:14,925 - INFO: 模型测试结束，当前时间为:2026-06-28 16:46:14
2026-06-28 16:53:54,520 - INFO: 开始创建模型对象:ImageClassification(
  (conv1): Conv2d(3, 32, kernel_size=(3, 3), stride=(1, 1))
  (bn): BatchNorm2d(32, eps=1e-05, momentum=0.1, affine=True, track_running_stats=True)
  (pool1): MaxPool2d(kernel_size=2, stride=2, padding=0, dilation=1, ceil_mode=False)
  (conv2): Conv2d(32, 128, kernel_size=(3, 3), stride=(1, 1))
  (bn2): BatchNorm2d(128, eps=1e-05, momentum=0.1, affine=True, track_running_stats=True)
  (pool2): MaxPool2d(kernel_size=2, stride=2, padding=0, dilation=1, ceil_mode=False)
  (linear1): Linear(in_features=4608, out_features=1024, bias=True)
  (bn3): BatchNorm1d(1024, eps=1e-05, momentum=0.1, affine=True, track_running_stats=True)
  (linear2): Linear(in_features=1024, out_features=512, bias=True)
  (bn4): BatchNorm1d(512, eps=1e-05, momentum=0.1, affine=True, track_running_stats=True)
  (output): Linear(in_features=512, out_features=10, bias=True)
  (dropout): Dropout(p=0.5, inplace=False)
)
2026-06-28 16:53:54,521 - INFO: 开始模型优化，当前时间为:2026-06-28 16:53:54
2026-06-28 16:54:13,219 - INFO: 开始创建模型对象:ImageClassification(
  (conv1): Conv2d(3, 32, kernel_size=(3, 3), stride=(1, 1))
  (bn1): BatchNorm2d(32, eps=1e-05, momentum=0.1, affine=True, track_running_stats=True)
  (pool1): MaxPool2d(kernel_size=2, stride=2, padding=0, dilation=1, ceil_mode=False)
  (conv2): Conv2d(32, 128, kernel_size=(3, 3), stride=(1, 1))
  (bn2): BatchNorm2d(128, eps=1e-05, momentum=0.1, affine=True, track_running_stats=True)
  (pool2): MaxPool2d(kernel_size=2, stride=2, padding=0, dilation=1, ceil_mode=False)
  (linear1): Linear(in_features=4608, out_features=1024, bias=True)
  (bn3): BatchNorm1d(1024, eps=1e-05, momentum=0.1, affine=True, track_running_stats=True)
  (linear2): Linear(in_features=1024, out_features=512, bias=True)
  (bn4): BatchNorm1d(512, eps=1e-05, momentum=0.1, affine=True, track_running_stats=True)
  (output): Linear(in_features=512, out_features=10, bias=True)
  (dropout): Dropout(p=0.5, inplace=False)
)
2026-06-28 16:54:13,219 - INFO: 开始模型优化，当前时间为:2026-06-28 16:54:13
2026-06-28 16:54:13,298 - INFO: 模型训练开始,当前时间为:2026-06-28 16:54:13
2026-06-28 16:54:52,385 - INFO: 当前轮数:0，当前轮的平均损失:1.5238,当前轮训练集的正确率(Accuracy):45.7375%,当前轮验证集的正确率为:58.9400%,耗时：39.0816s
2026-06-28 16:55:30,814 - INFO: 当前轮数:1，当前轮的平均损失:1.1397,当前轮训练集的正确率(Accuracy):59.8550%,当前轮验证集的正确率为:64.6600%,耗时：38.4254s
…
2026-06-28 17:02:01,774 - INFO: 当前轮数:11，当前轮的平均损失:0.2852,当前轮训练集的正确率(Accuracy):90.3025%,当前轮验证集的正确率为:71.7600%,耗时：37.8235s
2026-06-28 17:02:39,275 - INFO: 当前轮数:12，当前轮的平均损失:0.2540,当前轮训练集的正确率(Accuracy):91.2575%,当前轮验证集的正确率为:71.9200%,耗时：37.5007s
2026-06-28 17:02:39,276 - INFO: 早停策略触发。当前训练轮数为:12
2026-06-28 17:02:39,276 - INFO: 模型训练结束,当前时间为:2026-06-28 17:02:39
2026-06-28 17:02:39,369 - INFO: 模型测试开始，当前时间为:2026-06-28 17:02:39
2026-06-28 17:02:43,027 - INFO: 测试集的正确率(Accuracy):71.6500%，测试集的样本数量是:10000
2026-06-28 17:02:43,027 - INFO: 模型测试结束，当前时间为:2026-06-28 17:02:43
2026-06-28 17:11:41,960 - INFO: 开始创建模型对象:ImageClassification(
  (conv1): Conv2d(3, 32, kernel_size=(3, 3), stride=(1, 1))
  (bn1): BatchNorm2d(32, eps=1e-05, momentum=0.1, affine=True, track_running_stats=True)
  (pool1): MaxPool2d(kernel_size=2, stride=2, padding=0, dilation=1, ceil_mode=False)
  (conv2): Conv2d(32, 128, kernel_size=(3, 3), stride=(1, 1))
  (bn2): BatchNorm2d(128, eps=1e-05, momentum=0.1, affine=True, track_running_stats=True)
  (pool2): MaxPool2d(kernel_size=2, stride=2, padding=0, dilation=1, ceil_mode=False)
  (linear1): Linear(in_features=4608, out_features=512, bias=True)
  (bn3): BatchNorm1d(512, eps=1e-05, momentum=0.1, affine=True, track_running_stats=True)
  (linear2): Linear(in_features=512, out_features=256, bias=True)
  (bn4): BatchNorm1d(256, eps=1e-05, momentum=0.1, affine=True, track_running_stats=True)
  (output): Linear(in_features=256, out_features=10, bias=True)
  (dropout): Dropout(p=0.5, inplace=False)
)
2026-06-28 17:11:41,960 - INFO: 开始模型优化，当前时间为:2026-06-28 17:11:41
2026-06-28 17:11:41,977 - INFO: 模型训练开始,当前时间为:2026-06-28 17:11:41
2026-06-28 17:12:13,632 - INFO: 当前轮数:0，当前轮的平均损失:1.6106,当前轮训练集的正确率(Accuracy):42.5950%,当前轮验证集的正确率为:57.7200%,耗时：31.6552s
2026-06-28 17:12:45,238 - INFO: 当前轮数:1，当前轮的平均损失:1.2150,当前轮训练集的正确率(Accuracy):57.4975%,当前轮验证集的正确率为:64.5600%,耗时：31.5962s
…
2026-06-28 17:22:30,279 - INFO: 当前轮数:20，当前轮的平均损失:0.2230,当前轮训练集的正确率(Accuracy):92.3075%,当前轮验证集的正确率为:71.6800%,耗时：29.8444s
2026-06-28 17:22:59,944 - INFO: 当前轮数:21，当前轮的平均损失:0.2043,当前轮训练集的正确率(Accuracy):93.0325%,当前轮验证集的正确率为:71.1000%,耗时：29.6635s
2026-06-28 17:22:59,944 - INFO: 早停策略触发。当前训练轮数为:21
2026-06-28 17:22:59,944 - INFO: 模型训练结束,当前时间为:2026-06-28 17:22:59
2026-06-28 17:23:00,020 - INFO: 模型测试开始，当前时间为:2026-06-28 17:23:00
2026-06-28 17:23:03,629 - INFO: 测试集的正确率(Accuracy):71.5600%，测试集的样本数量是:10000
2026-06-28 17:23:03,629 - INFO: 模型测试结束，当前时间为:2026-06-28 17:23:03
2026-06-28 17:24:35,074 - INFO: 开始创建模型对象:ImageClassification(
  (conv1): Conv2d(3, 32, kernel_size=(3, 3), stride=(1, 1))
  (bn1): BatchNorm2d(32, eps=1e-05, momentum=0.1, affine=True, track_running_stats=True)
  (pool1): MaxPool2d(kernel_size=2, stride=2, padding=0, dilation=1, ceil_mode=False)
  (conv2): Conv2d(32, 128, kernel_size=(3, 3), stride=(1, 1))
  (bn2): BatchNorm2d(128, eps=1e-05, momentum=0.1, affine=True, track_running_stats=True)
  (pool2): MaxPool2d(kernel_size=2, stride=2, padding=0, dilation=1, ceil_mode=False)
  (linear1): Linear(in_features=4608, out_features=512, bias=True)
  (bn3): BatchNorm1d(512, eps=1e-05, momentum=0.1, affine=True, track_running_stats=True)
  (linear2): Linear(in_features=512, out_features=256, bias=True)
  (bn4): BatchNorm1d(256, eps=1e-05, momentum=0.1, affine=True, track_running_stats=True)
  (output): Linear(in_features=256, out_features=10, bias=True)
  (dropout): Dropout(p=0.5, inplace=False)
)
2026-06-28 17:24:35,074 - INFO: 开始模型优化，当前时间为:2026-06-28 17:24:35
2026-06-28 17:24:35,082 - INFO: 模型训练开始,当前时间为:2026-06-28 17:24:35
2026-06-28 17:25:03,322 - INFO: 开始创建模型对象:ImageClassification(
  (conv1): Conv2d(3, 32, kernel_size=(3, 3), stride=(1, 1))
  (bn1): BatchNorm2d(32, eps=1e-05, momentum=0.1, affine=True, track_running_stats=True)
  (pool1): MaxPool2d(kernel_size=2, stride=2, padding=0, dilation=1, ceil_mode=False)
  (conv2): Conv2d(32, 128, kernel_size=(3, 3), stride=(1, 1))
  (bn2): BatchNorm2d(128, eps=1e-05, momentum=0.1, affine=True, track_running_stats=True)
  (pool2): MaxPool2d(kernel_size=2, stride=2, padding=0, dilation=1, ceil_mode=False)
  (linear1): Linear(in_features=4608, out_features=512, bias=True)
  (bn3): BatchNorm1d(512, eps=1e-05, momentum=0.1, affine=True, track_running_stats=True)
  (linear2): Linear(in_features=512, out_features=256, bias=True)
  (bn4): BatchNorm1d(256, eps=1e-05, momentum=0.1, affine=True, track_running_stats=True)
  (output): Linear(in_features=256, out_features=10, bias=True)
  (dropout): Dropout(p=0.5, inplace=False)
)
2026-06-28 17:25:03,322 - INFO: 开始模型优化，当前时间为:2026-06-28 17:25:03
2026-06-28 17:25:03,332 - INFO: 模型训练开始,当前时间为:2026-06-28 17:25:03
2026-06-28 17:25:36,657 - INFO: 当前轮数:0，当前轮的平均损失:1.5348,当前轮训练集的正确率(Accuracy):45.3175%,当前轮验证集的正确率为:60.7500%,耗时：33.3246s
2026-06-28 17:26:11,565 - INFO: 当前轮数:1，当前轮的平均损失:1.1755,当前轮训练集的正确率(Accuracy):59.1700%,当前轮验证集的正确率为:66.7800%,耗时：34.9074s
…
2026-06-28 18:22:38,138 - INFO: 当前轮数:97，当前轮的平均损失:0.0516,当前轮训练集的正确率(Accuracy):98.2225%,当前轮验证集的正确率为:72.4200%,耗时：35.6535s
2026-06-28 18:23:12,851 - INFO: 当前轮数:98，当前轮的平均损失:0.0548,当前轮训练集的正确率(Accuracy):98.1000%,当前轮验证集的正确率为:72.6400%,耗时：34.7130s
2026-06-28 18:23:48,064 - INFO: 当前轮数:99，当前轮的平均损失:0.0511,当前轮训练集的正确率(Accuracy):98.3300%,当前轮验证集的正确率为:72.4100%,耗时：35.2133s
2026-06-28 18:23:48,064 - INFO: 模型训练结束,当前时间为:2026-06-28 18:23:48
2026-06-28 18:23:48,130 - INFO: 模型测试开始，当前时间为:2026-06-28 18:23:48
2026-06-28 18:23:51,633 - INFO: 测试集的正确率(Accuracy):73.1000%，测试集的样本数量是:10000
2026-06-28 18:23:51,633 - INFO: 模型测试结束，当前时间为:2026-06-28 18:23:51
2026-06-28 18:49:30,389 - INFO: 开始创建模型对象:ImageClassification(
  (conv1a): Conv2d(3, 32, kernel_size=(3, 3), stride=(1, 1), padding=(1, 1))
  (bn1a): BatchNorm2d(32, eps=1e-05, momentum=0.1, affine=True, track_running_stats=True)
  (conv1b): Conv2d(32, 32, kernel_size=(3, 3), stride=(1, 1), padding=(1, 1))
  (bn1b): BatchNorm2d(32, eps=1e-05, momentum=0.1, affine=True, track_running_stats=True)
  (pool1): MaxPool2d(kernel_size=2, stride=2, padding=0, dilation=1, ceil_mode=False)
  (conv2a): Conv2d(32, 64, kernel_size=(3, 3), stride=(1, 1), padding=(1, 1))
  (bn2a): BatchNorm2d(64, eps=1e-05, momentum=0.1, affine=True, track_running_stats=True)
  (conv2b): Conv2d(64, 64, kernel_size=(3, 3), stride=(1, 1), padding=(1, 1))
  (bn2b): BatchNorm2d(64, eps=1e-05, momentum=0.1, affine=True, track_running_stats=True)
  (pool2): MaxPool2d(kernel_size=2, stride=2, padding=0, dilation=1, ceil_mode=False)
  (conv3a): Conv2d(64, 128, kernel_size=(3, 3), stride=(1, 1), padding=(1, 1))
  (bn3a): BatchNorm2d(128, eps=1e-05, momentum=0.1, affine=True, track_running_stats=True)
  (conv3b): Conv2d(128, 128, kernel_size=(3, 3), stride=(1, 1), padding=(1, 1))
  (bn3b): BatchNorm2d(128, eps=1e-05, momentum=0.1, affine=True, track_running_stats=True)
  (pool3): MaxPool2d(kernel_size=2, stride=2, padding=0, dilation=1, ceil_mode=False)
  (linear1): Linear(in_features=2048, out_features=512, bias=True)
  (bn_fc1): BatchNorm1d(512, eps=1e-05, momentum=0.1, affine=True, track_running_stats=True)
  (linear2): Linear(in_features=512, out_features=256, bias=True)
  (bn_fc2): BatchNorm1d(256, eps=1e-05, momentum=0.1, affine=True, track_running_stats=True)
  (output): Linear(in_features=256, out_features=10, bias=True)
  (dropout): Dropout(p=0.5, inplace=False)
)
2026-06-28 18:49:30,390 - INFO: 开始模型优化，当前时间为:2026-06-28 18:49:30
2026-06-28 18:49:30,481 - INFO: 模型训练开始,当前时间为:2026-06-28 18:49:30
2026-06-28 18:50:32,670 - INFO: 当前轮数:0，当前轮的平均损失:1.5495,当前轮训练集的正确率(Accuracy):44.2525%,当前轮验证集的正确率为:59.8400%,耗时：62.1889s
2026-06-28 18:51:35,895 - INFO: 当前轮数:1，当前轮的平均损失:1.1268,当前轮训练集的正确率(Accuracy):60.4550%,当前轮验证集的正确率为:66.9100%,耗时：63.2147s
…
2026-06-28 19:06:41,210 - INFO: 当前轮数:15，当前轮的平均损失:0.1566,当前轮训练集的正确率(Accuracy):94.6250%,当前轮验证集的正确率为:74.6400%,耗时：63.5307s
2026-06-28 19:07:45,023 - INFO: 当前轮数:16，当前轮的平均损失:0.1550,当前轮训练集的正确率(Accuracy):94.6950%,当前轮验证集的正确率为:75.2400%,耗时：63.8131s
2026-06-28 19:07:45,023 - INFO: 早停策略触发。当前训练轮数为:16
2026-06-28 19:07:45,023 - INFO: 模型训练结束,当前时间为:2026-06-28 19:07:45
2026-06-28 19:07:45,099 - INFO: 模型测试开始，当前时间为:2026-06-28 19:07:45
2026-06-28 19:07:51,424 - INFO: 测试集的正确率(Accuracy):76.4400%，测试集的样本数量是:10000
2026-06-28 19:07:51,424 - INFO: 模型测试结束，当前时间为:2026-06-28 19:07:51
2026-06-28 19:19:36,469 - INFO: 开始创建模型对象:ImageClassification(
  (conv1a): Conv2d(3, 32, kernel_size=(3, 3), stride=(1, 1), padding=(1, 1))
  (bn1a): BatchNorm2d(32, eps=1e-05, momentum=0.1, affine=True, track_running_stats=True)
  (conv1b): Conv2d(32, 32, kernel_size=(3, 3), stride=(1, 1), padding=(1, 1))
  (bn1b): BatchNorm2d(32, eps=1e-05, momentum=0.1, affine=True, track_running_stats=True)
  (pool1): MaxPool2d(kernel_size=2, stride=2, padding=0, dilation=1, ceil_mode=False)
  (conv2a): Conv2d(32, 64, kernel_size=(3, 3), stride=(1, 1), padding=(1, 1))
  (bn2a): BatchNorm2d(64, eps=1e-05, momentum=0.1, affine=True, track_running_stats=True)
  (conv2b): Conv2d(64, 64, kernel_size=(3, 3), stride=(1, 1), padding=(1, 1))
  (bn2b): BatchNorm2d(64, eps=1e-05, momentum=0.1, affine=True, track_running_stats=True)
  (pool2): MaxPool2d(kernel_size=2, stride=2, padding=0, dilation=1, ceil_mode=False)
  (conv3a): Conv2d(64, 128, kernel_size=(3, 3), stride=(1, 1), padding=(1, 1))
  (bn3a): BatchNorm2d(128, eps=1e-05, momentum=0.1, affine=True, track_running_stats=True)
  (conv3b): Conv2d(128, 128, kernel_size=(3, 3), stride=(1, 1), padding=(1, 1))
  (bn3b): BatchNorm2d(128, eps=1e-05, momentum=0.1, affine=True, track_running_stats=True)
  (pool3): MaxPool2d(kernel_size=2, stride=2, padding=0, dilation=1, ceil_mode=False)
  (linear1): Linear(in_features=2048, out_features=512, bias=True)
  (bn_fc1): BatchNorm1d(512, eps=1e-05, momentum=0.1, affine=True, track_running_stats=True)
  (linear2): Linear(in_features=512, out_features=256, bias=True)
  (bn_fc2): BatchNorm1d(256, eps=1e-05, momentum=0.1, affine=True, track_running_stats=True)
  (output): Linear(in_features=256, out_features=10, bias=True)
  (dropout): Dropout(p=0.5, inplace=False)
)
2026-06-28 19:19:36,470 - INFO: 开始模型优化，当前时间为:2026-06-28 19:19:36
2026-06-28 19:19:36,547 - INFO: 模型训练开始,当前时间为:2026-06-28 19:19:36
2026-06-28 19:21:40,689 - INFO: 开始创建模型对象:ImageClassification(
  (conv1a): Conv2d(3, 32, kernel_size=(3, 3), stride=(1, 1), padding=(1, 1))
  (bn1a): BatchNorm2d(32, eps=1e-05, momentum=0.1, affine=True, track_running_stats=True)
  (conv1b): Conv2d(32, 32, kernel_size=(3, 3), stride=(1, 1), padding=(1, 1))
  (bn1b): BatchNorm2d(32, eps=1e-05, momentum=0.1, affine=True, track_running_stats=True)
  (pool1): MaxPool2d(kernel_size=2, stride=2, padding=0, dilation=1, ceil_mode=False)
  (conv2a): Conv2d(32, 64, kernel_size=(3, 3), stride=(1, 1), padding=(1, 1))
  (bn2a): BatchNorm2d(64, eps=1e-05, momentum=0.1, affine=True, track_running_stats=True)
  (conv2b): Conv2d(64, 64, kernel_size=(3, 3), stride=(1, 1), padding=(1, 1))
  (bn2b): BatchNorm2d(64, eps=1e-05, momentum=0.1, affine=True, track_running_stats=True)
  (pool2): MaxPool2d(kernel_size=2, stride=2, padding=0, dilation=1, ceil_mode=False)
  (conv3a): Conv2d(64, 128, kernel_size=(3, 3), stride=(1, 1), padding=(1, 1))
  (bn3a): BatchNorm2d(128, eps=1e-05, momentum=0.1, affine=True, track_running_stats=True)
  (conv3b): Conv2d(128, 128, kernel_size=(3, 3), stride=(1, 1), padding=(1, 1))
  (bn3b): BatchNorm2d(128, eps=1e-05, momentum=0.1, affine=True, track_running_stats=True)
  (pool3): MaxPool2d(kernel_size=2, stride=2, padding=0, dilation=1, ceil_mode=False)
  (linear1): Linear(in_features=2048, out_features=512, bias=True)
  (bn_fc1): BatchNorm1d(512, eps=1e-05, momentum=0.1, affine=True, track_running_stats=True)
  (linear2): Linear(in_features=512, out_features=256, bias=True)
  (bn_fc2): BatchNorm1d(256, eps=1e-05, momentum=0.1, affine=True, track_running_stats=True)
  (output): Linear(in_features=256, out_features=10, bias=True)
  (dropout): Dropout(p=0.5, inplace=False)
)
2026-06-28 19:21:40,689 - INFO: 开始模型优化，当前时间为:2026-06-28 19:21:40
2026-06-28 19:21:40,701 - INFO: 模型训练开始,当前时间为:2026-06-28 19:21:40
2026-06-28 19:22:39,133 - INFO: 当前轮数:0，当前轮的平均损失:1.8593,当前轮训练集的正确率(Accuracy):32.9800%,当前轮验证集的正确率为:48.0400%,耗时：58.4321s
2026-06-28 19:23:39,038 - INFO: 当前轮数:1，当前轮的平均损失:1.4030,当前轮训练集的正确率(Accuracy):50.5200%,当前轮验证集的正确率为:60.0800%,耗时：59.8949s
…
