2026-06-27 22:10:20,050 - INFO: 开始创建模型对象:ImageClassification(
  (conv1): Conv2d(3, 6, kernel_size=(3, 3), stride=(1, 1))
  (pool1): MaxPool2d(kernel_size=2, stride=2, padding=0, dilation=1, ceil_mode=False)
  (conv2): Conv2d(6, 16, kernel_size=(3, 3), stride=(1, 1))
  (pool2): MaxPool2d(kernel_size=2, stride=2, padding=0, dilation=1, ceil_mode=False)
  (linear1): Linear(in_features=576, out_features=120, bias=True)
  (linear2): Linear(in_features=120, out_features=84, bias=True)
  (output): Linear(in_features=84, out_features=10, bias=True)
)
2026-06-27 22:10:46,317 - INFO: 当前轮数:0，当前轮的平均损失:1.7148,当前轮的正确率(Accuracy):36.088%,耗时：26.2104s
2026-06-27 22:11:14,070 - INFO: 当前轮数:1，当前轮的平均损失:1.4177,当前轮的正确率(Accuracy):48.69%,耗时：27.7520s
2026-06-27 22:11:42,469 - INFO: 当前轮数:2，当前轮的平均损失:1.2805,当前轮的正确率(Accuracy):54.157999999999994%,耗时：28.3989s
2026-06-27 22:12:10,040 - INFO: 当前轮数:3，当前轮的平均损失:1.2113,当前轮的正确率(Accuracy):56.948%,耗时：27.5709s
…
2026-06-27 22:34:56,279 - INFO: 当前轮数:44，当前轮的平均损失:0.7491,当前轮的正确率(Accuracy):73.26599999999999%,耗时：33.0400s
2026-06-27 22:35:30,211 - INFO: 当前轮数:45，当前轮的平均损失:0.7402,当前轮的正确率(Accuracy):73.83%,耗时：33.9316s
2026-06-27 22:36:02,911 - INFO: 当前轮数:46，当前轮的平均损失:0.7370,当前轮的正确率(Accuracy):73.942%,耗时：32.6999s
2026-06-27 22:36:36,988 - INFO: 当前轮数:47，当前轮的平均损失:0.7278,当前轮的正确率(Accuracy):74.25%,耗时：34.0765s
2026-06-27 22:37:10,982 - INFO: 当前轮数:48，当前轮的平均损失:0.7302,当前轮的正确率(Accuracy):73.85000000000001%,耗时：33.9945s
2026-06-27 22:37:46,336 - INFO: 当前轮数:49，当前轮的平均损失:0.7223,当前轮的正确率(Accuracy):74.478%,耗时：35.3532s
2026-06-27 22:40:45,998 - INFO: 开始创建模型对象:ImageClassification(
  (conv1): Conv2d(3, 6, kernel_size=(3, 3), stride=(1, 1))
  (pool1): MaxPool2d(kernel_size=2, stride=2, padding=0, dilation=1, ceil_mode=False)
  (conv2): Conv2d(6, 16, kernel_size=(3, 3), stride=(1, 1))
  (pool2): MaxPool2d(kernel_size=2, stride=2, padding=0, dilation=1, ceil_mode=False)
  (linear1): Linear(in_features=576, out_features=120, bias=True)
  (linear2): Linear(in_features=120, out_features=84, bias=True)
  (output): Linear(in_features=84, out_features=10, bias=True)
)
2026-06-27 22:40:46,101 - INFO: 模型训练开始,当前时间为:1782571246.1014116
2026-06-27 22:41:11,190 - INFO: 当前轮数:0，当前轮的平均损失:1.5919,当前轮的正确率(Accuracy):41.002%,耗时：25.0886s
2026-06-27 22:41:37,508 - INFO: 当前轮数:1，当前轮的平均损失:1.2759,当前轮的正确率(Accuracy):54.004%,耗时：26.3172s
2026-06-27 22:42:03,797 - INFO: 当前轮数:2，当前轮的平均损失:1.1391,当前轮的正确率(Accuracy):59.53000000000001%,耗时：26.2890s
2026-06-27 22:42:29,774 - INFO: 当前轮数:3，当前轮的平均损失:1.0617,当前轮的正确率(Accuracy):62.56%,耗时：25.9773s
2026-06-27 22:42:56,716 - INFO: 当前轮数:4，当前轮的平均损失:1.0046,当前轮的正确率(Accuracy):64.78399999999999%,耗时：26.9424s
2026-06-27 22:44:00,575 - INFO: 开始创建模型对象:ImageClassification(
  (conv1): Conv2d(3, 6, kernel_size=(3, 3), stride=(1, 1))
  (pool1): MaxPool2d(kernel_size=2, stride=2, padding=0, dilation=1, ceil_mode=False)
  (conv2): Conv2d(6, 16, kernel_size=(3, 3), stride=(1, 1))
  (pool2): MaxPool2d(kernel_size=2, stride=2, padding=0, dilation=1, ceil_mode=False)
  (linear1): Linear(in_features=576, out_features=120, bias=True)
  (linear2): Linear(in_features=120, out_features=84, bias=True)
  (output): Linear(in_features=84, out_features=10, bias=True)
)
2026-06-27 22:44:00,716 - INFO: 模型训练开始,当前时间为:1782571440.7160091
2026-06-27 22:44:25,393 - INFO: 当前轮数:0，当前轮的平均损失:1.6057,当前轮的正确率(Accuracy):40.664%,耗时：24.6774s
2026-06-27 22:44:53,399 - INFO: 当前轮数:1，当前轮的平均损失:1.2892,当前轮的正确率(Accuracy):53.40200000000001%,耗时：28.0057s
2026-06-27 22:45:20,990 - INFO: 当前轮数:2，当前轮的平均损失:1.1709,当前轮的正确率(Accuracy):58.412%,耗时：27.5906s
2026-06-27 22:45:48,014 - INFO: 当前轮数:3，当前轮的平均损失:1.1015,当前轮的正确率(Accuracy):61.06399999999999%,耗时：27.0226s
…
